RAFT/temp_weights/temp.ckpt (torch, 25363 bytes, 4 tensors)

conv1.weight f4 [128, 3, 3, 3]
0.04316422 -0.06042722 -0.038594138 -0.016268127 0.021028765 -0.14477713 -0.1522839 0.13524745
0.094708845 0.07255457 -0.038580004 0.078516744 -0.112268254 -0.11637574 0.050594166 -0.13939913
0.16088462 -0.072124116 0.13045727 0.16104719 0.15096907 -0.12912662 0.00059102767 -0.10019103
-0.17248885 -0.00761474 0.17581286 -0.064499006 0.01724545 -0.025908906 -0.018335553 -0.112941384
0.12105977 -0.07047831 -0.1692299 0.040700726 -0.040502165 -0.09755776 -0.07689962 0.13848765
0.1327147 0.17870283 -0.072625026 0.033321347 -0.18950853 0.06444358 0.087342426 -0.04084159
0.029040169 0.07783989 0.09052607 -0.071282975 0.066015966 0.059786387 0.019967176 -0.0975534
-0.025119064 0.087527975 0.11811211 -0.0017480992 0.048312783 -0.062430065 -0.119737975 -0.11494522
0.042292614 0.18389899 0.12627466 -0.10104033 0.17326863 -0.11993041 0.1429009 -0.07955762
-0.044571012 0.16475305 0.18998551 0.04469747 -0.06231896 -0.081591316 0.026122909 -0.022256956
-0.0576048 0.014684107 0.0148464665 -0.08045327 -0.1337672 0.116702035 0.16484012 -0.023636013
0.09772441 -0.16035584 -0.13008511 0.06707276 -0.025159167 0.12079307 0.013598339 0.08907729
0.123922266 -0.040119793 0.08280517 0.10472972 0.08180298 -0.1462362 -0.070542045 0.13785496
0.077185 0.09086682 0.09050477 -0.003949575 -0.13827431 -0.07813713 -0.10915679 0.04585094
-0.011435199 0.13597418 0.022417067 -0.03180037 -0.11493882 -0.12705502 -0.15380433 0.02358109
0.10846692 -0.12000339 -0.104536206 -0.013268206 -0.058728654 -0.184266 -0.12926687 -0.07849557
0.12721527 0.15761766 0.079192065 0.02745482 -0.035811134 -0.0047912425 0.019204866 -0.07750194
0.003501957 -0.18187304 0.047238715 0.0775966 0.0466701 0.0023129731 0.050624263 -0.13534144
0.01912505 -0.02957859 0.028146012 -0.03040202 -0.16193226 -0.14858052 -0.049905658 -0.055927545
-0.15909106 0.10275918 0.12748528 -0.18299957 -0.17415042 -0.14289077 -0.16378415 0.04588549
0.064776875 0.19197455 0.09662577 0.049770646 0.17343585 -0.024226513 -0.08286822 0.027568381
-0.10996851 -0.028773906 -0.048123006 0.14279264 -0.07943605 0.152211 -0.13407128 0.16087425
-0.006068942 0.16060935 0.07223921 0.17695095 0.17782132 -0.09029313 0.113771126 -0.1057253
0.09394472 0.10470554 0.13003056 -0.08290235 -0.18632507 -0.17123754 0.04535471 -0.1647786
-0.13874824 0.08536784 0.10658948 -0.04225625 -0.07883174 0.10998393 -0.15811327 -0.050101765
0.021954812 -0.11375878 -0.06325058 0.08453317 0.007853336 0.13287592 -0.108911306 0.15158689
0.16383044 0.15851572 -0.08943341 0.108873844 0.11999212 0.09065096 0.07473923 -0.040084716
-0.09034436 0.09251237 -0.106376626 -0.05247762 -0.105985284 0.10412633 -0.022110082 -0.0433506
0.17898183 0.043219373 0.12894236 0.07574496 0.13157861 -0.18385066 -0.17269024 0.0023684925
-0.008903613 -0.064732604 0.12550728 -0.07627569 -0.032769594 0.08329943 0.08612107 0.06748576
0.02284858 0.019943891 -0.09471999 0.1902372 0.0116977915 0.029940246 0.11291734 -0.19115023
-0.13378139 -0.1556509 -0.030992955 0.12675217 -0.1780964 0.039346263 -0.14545915 0.12729447
00000000: f7cc 303d 8882 77bd e314 1ebd bc44 85bc
00000010: 8444 ac3c 7540 14be 50f0 1bbe 4f7e 0a3e
00000020: b6f6 c13d 7e97 943d 1106 1ebd 63cd a03d
00000030: e6ec e5bd 6756 eebd d43b 4f3d a5be 0ebe
00000040: f0be 243e cfb5 93bd 9796 053e 8ee9 243e
00000050: a397 1a3e c539 04be 32ef 1a3a f430 cdbd
00000060: eba0 30be 1285 f9bb 4908 343e 0e18 84bd
00000070: 5446 8d3c ea3e d4bc 7134 96bc d04d e7bd
00000080: 2fee f73d ef56 90bd 9a4a 2dbe ceb5 263d
00000090: 99e5 25bd 5dcc c7bd 8c7d 9dbd b5cf 0d3e
000000a0: 5de6 073e e0fd 363e 6ebc 94bd f77b 083d
000000b0: 860e 42be fffa 833d 96e0 b23d 8349 27bd
000000c0: a6e5 ed3c 856a 9f3d bb65 b93d cffc 91bd
000000d0: 6133 873d 92e2 743d 3492 a33c 14ca c7bd
000000e0: 7fc6 cdbc de41 b33d c3e4 f13d 7a20 e5ba
000000f0: a0e3 453d abb6 7fbd 2f39 f5bd 6668 ebbd
00000100: 053b 2d3d 0450 3c3e 254e 013e 3cee cebd
00000110: 556d 313e 139e f5bd 9d54 123e 1bef a2bd
00000120: 1890 36bd 06b5 283e 908b 423e b214 373d
00000130: 2a42 7fbd 5919 a7bd b6ff d53c 3854 b6bc
00000140: 03f3 6bbd 9c95 703c 983e 733c afc4 a4bd
00000150: 45fa 08be 7a01 ef3d d9cb 283e 50a0 c1bc
00000160: bc23 c83d 5234 24be 0835 05be 715d 893d
00000170: 991a cebc 5b62 f73d 91cb 5e3c 276e b63d
00000180: f5ca fd3d a754 24bd c295 a93d 897c d63d
00000190: 5288 a73d f1be 15be 5978 90bd da29 0d3e
000001a0: 2b13 9e3d 6218 ba3d 915a b93d 706b 81bb
000001b0: c897 0dbe 5c06 a0bd 988d dfbd 32ce 3b3d
000001c0: b35a 3bbc d13c 0b3e ffa3 b73c 1b41 02bd
000001d0: 0b65 ebbd b61a 02be e27e 1dbe 212d c13c
000001e0: e823 de3d 56c4 f5bd 1417 d6bd e462 59bc
000001f0: 758d 70bd 3ab0 3cbe 895e 04be 49c2 a0bd
00000200: b844 023e 8666 213e 732f a23d eee8 e03c
00000210: b2ae 12bd dbff 9cbb 8653 9d3c 56b9 9ebd
00000220: 1781 653b ed3c 3abe 627d 413d f7ea 9e3d
00000230: 2629 3f3d 4095 173b 635b 4f3d f296 0abe
00000240: 23ac 9c3c cd4e f2bc 7792 e63c a80d f9bc
00000250: 92d1 25be 7e25 18be e069 4cbd 4814 65bd
00000260: c4e8 22be 6873 d23d 808b 023e 3d64 3bbe
00000270: 7d54 32be f551 12be 08b7 27be 6cf2 3b3d
00000280: bda9 843d fa94 443e bbe3 c53d 4edc 4b3d
00000290: 2b99 313e ae76 c6bc d0b6 a9bd 16d7 e13c
000002a0: 2c37 e1bd 41b7 ebbc a11c 45bd 3c38 123e
000002b0: 5eaf a2bd 33dd 1b3e fb49 09be 38bc 243e
000002c0: fadd c6bb c776 243e 27f2 933d a132 353e
000002d0: cb16 363e 9beb b8bd d600 e93d 8286 d8bd
000002e0: 1766 c03d dc6f d63d bb26 053e b5c8 a9bd
000002f0: 00cc 3ebe e558 2fbe dcc5 393d b9bb 28be
00000300: 0514 0ebe 56d5 ae3d 964b da3d e414 2dbd
00000310: 8972 a1bd 413f e13d 72e8 21be 8237 4dbd
00000320: 94da b33c 5dfa e8bd 8589 81bd ba1f ad3d
00000330: 47ab 003c a010 083e e40c dfbd 9839 1b3e
00000340: 2bc3 273e f251 223e dd28 b7bd 40f9 de3d
00000350: 6ebe f53d 36a7 b93d e210 993d df2f 24bd
00000360: 7706 b9bd 2077 bd3d fddb d9bd c6f2 56bd
00000370: d00e d9bd 2f40 d53d 3420 b5bc 6690 31bd
00000380: 0347 373e cc06 313d 7709 043e 2c20 9b3d
00000390: 8bbc 063e 5943 3cbe b6d5 30be b638 1b3b
000003a0: 76e0 11bc 8792 84bd fb84 003e 6e36 9cbd
000003b0: 6939 06bd e498 aa3d 3e60 b03d f935 8a3d
000003c0: f22c bb3c 5f61 a33c 8efc c1bd 8acd 423e
000003d0: 18a8 3f3c 3f45 f53c 3541 e73d e3bc 43be
000003e0: fdfd 08be f362 1fbe f0e4 fdbc 52cb 013e
000003f0: e75e 36be 8c29 213d 3ef3 14be 7b59 023e

conv1.bias f4 [128]
0.0020964022 -0.09217976 -0.008765824 0.0668486 -0.11066737 -0.1849094 -0.11457611 0.15617546
0.16308331 0.1570837 -0.114073336 0.053803336 -0.029675176 -0.10147919 -0.023830973 -0.148948
-0.07597408 0.13723598 0.11970168 0.13209066 -0.12036426 0.17253803 -0.04408949 0.08169669
0.073974125 -0.18354292 0.09580709 0.14504609 -0.10936886 -0.14693993 -0.08554367 0.040712427
-0.042281143 0.004792206 -0.02522563 0.036501843 -0.094528034 -0.10530453 0.098602116 0.0155405495
-0.13959804 -0.029838247 0.13635483 0.15931338 0.092322595 0.13539773 -0.052634843 -0.110499024
0.15587692 0.1897725 -0.12869594 0.15261531 -0.14071117 -0.076492585 0.10433382 0.16627611
0.11260779 -0.052631903 0.11921965 -0.17782313 0.13164032 -0.09800304 -0.0029021886 0.16659434
0.1293195 0.17278582 0.07291836 0.040014744 0.010109803 0.12964068 0.14564379 0.021439333
0.15259105 0.056579668 0.18439822 0.014743228 -0.014308526 0.04672119 -0.13534468 -0.12830189
0.049021546 0.08960041 -0.10821433 0.10923488 0.14177468 -0.040384196 -0.13022618 0.008463222
-0.06201039 0.16455038 0.0853948 -0.1472395 -0.053703748 0.11235944 0.12825277 -0.16155468
-0.08602827 -0.041612044 -0.17743944 -0.089968234 0.09351706 0.16193438 0.113878466 -0.022202171
-0.08421442 0.05089119 0.08999264 -0.14103188 -0.023469638 0.07001271 -0.0754064 -0.03214358
-0.15298049 -0.11296956 0.07368125 0.036565367 -0.053934015 -0.1058747 -0.015137989 -0.092639446
0.17087221 0.11959172 0.10857055 0.106637865 -0.17837068 -0.10565731 0.15490611 0.0433896
00000000: cb63 093b bec8 bcbd 889e 0fbc ebe7 883d
00000010: 93a5 e2bd e458 3dbe e1a6 eabd 76ec 1f3e
00000020: 50ff 263e 8dda 203e 489f e9bd e360 5c3d
00000030: 5b19 f3bc 52d4 cfbd 2c39 c3bc d385 18be
00000040: 4c98 9bbd 9787 0c3e 2826 f53d c642 073e
00000050: 8a81 f6bd cfad 303e 2e97 34bd 9850 a73d
00000060: bf7f 973d adf2 3bbe 8236 c43d f686 143e
00000070: c8fc dfbd 6c77 16be 8531 afbd 13c2 263d
00000080: fe2e 2dbd f007 9d3b fba5 cebc f582 153d
00000090: ea97 c1bd e7a9 d7bd e8ef c93d ca9d 7e3c
000000a0: caf2 0ebe 576f f4bc 9aa0 0b3e 0c23 233e
000000b0: a113 bd3d b4a5 0a3e a297 57bd 504d e2bd
000000c0: 339e 1f3e b953 423e dec8 03be 3047 1c3e
000000d0: 9716 10be 25a8 9cbd f8ac d53d 4944 2a3e
000000e0: ea9e e63d 8d94 57bd 6f29 f43d 4417 36be
000000f0: b8cc 063e d1b5 c8bd a532 3ebb b597 2a3e
00000100: 556c 043e c4ee 303e 3956 953d 80e6 233d
00000110: 96a3 253c 87c0 043e a523 153e 8aa1 af3c
00000120: d440 1c3e 15c0 673d e3d2 3c3e 958d 713c
00000130: 4f6e 6abc b85e 3f3d cc97 0abe 9261 03be
00000140: d1ca 483d 6b80 b73d 7a9f ddbd 89b6 df3d
00000150: 622d 113e e669 25bd 035a 05be 53a9 0a3c
00000160: 9bfe 7dbd e57f 283e 78e3 ae3d f4c5 16be
00000170: 76f8 5bbd b51c e63d b254 033e 976e 25be
00000180: 972f b0bd 6471 2abd afb2 35be 4441 b8bd
00000190: df85 bf3d 20d2 253e 1d39 e93d 54e1 b5bc
000001a0: 9c78 acbd 4873 503d 104e b83d a96a 10be
000001b0: 6643 c0bc d362 8f3d ac6e 9abd fda8 03bd
000001c0: eba6 1cbe 965c e7bd 32e6 963d 91c5 153d
000001d0: eae9 5cbd d6d4 d8bd 5405 78bc c0b9 bdbd
000001e0: 20f9 2e3e 81ec f43d 3d5a de3d f464 da3d
000001f0: cea6 36be dc62 d8bd b59f 1e3e 4bb9 313d

conv2.weight f4 [2, 128, 3, 3]
-0.015327179 0.010501355 -0.008148064 -0.027804002 -0.025898248 0.002818964 -0.025924891 -0.0012746577
0.017474344 -0.014183303 -0.027169341 -0.010760178 -0.0029030398 0.022678256 -0.013929674 0.026591524
0.019461472 0.026121102 0.027925719 0.012341535 -0.020594984 0.0028679806 -0.024197977 0.023634207
0.0014534763 0.022389024 0.008843575 -0.013551603 -0.017398942 0.011629064 -0.026976636 -0.02367294
0.02350797 -0.010795993 0.023709744 0.0096441265 0.008894028 -0.003693114 -0.023255602 0.018851252
0.004661807 -0.011623805 0.02427696 0.0010977322 0.024990791 -0.0009057779 -0.019791598 -0.0098737
-0.0052785873 -0.015472143 -0.0049861795 -0.010358277 -0.024741026 -0.021026328 -0.009935491 -0.007816603
-0.0017529015 -0.027182793 -0.0022965537 0.0046048416 -0.013828325 0.027069561 0.008236232 -0.022556685
0.015408203 0.0064978255 -0.0061157183 -0.009996112 0.014937454 -0.017148826 -0.010908978 0.011977619
0.01705365 0.012735858 0.0014577612 -0.012527852 -0.026264396 -0.009851809 0.009898971 0.011847529
-0.007918283 -0.009921238 -0.0023371235 -0.025366243 0.009706184 -0.018409431 -0.027606085 0.0062451726
-0.006772068 -0.023094878 0.0060091643 0.02001892 0.00012772603 -0.012820186 -0.00274252 0.007219885
-0.022766503 0.009974059 0.0038087827 -0.018127562 -0.00022795475 -0.00874054 0.007756411 0.019395133
0.011340066 -0.010299299 -0.019721722 0.027473925 0.011132588 -0.006988555 -0.0019572189 0.004604663
0.01628597 0.026680093 0.0279813 0.009060143 -0.0018046051 0.02092276 0.0031085513 -0.017665578
-0.010247739 0.021526974 0.007692207 0.017226271 0.027156023 -0.0011010267 0.008915133 0.0016455218
-0.009172047 0.027491346 -0.0188196 0.019268429 0.011569124 0.0062728734 -0.024405923 -0.010698475
-5.067456e-05 0.01488927 -0.012329892 0.027175276 0.023536356 -0.0025207293 -0.025989272 0.015248125
-0.002924798 -0.016549494 -0.023350025 0.027746992 0.01849482 0.013773158 0.019203067 -0.016732289
-0.016219579 0.02064365 0.022432752 0.02744671 -0.02786305 0.02336722 0.020333814 -0.00607321
0.005000439 -0.012376745 -0.016637605 -0.0033505235 -0.013332158 -0.005335426 -0.010679618 -0.00038769832
-0.02236499 0.024524359 0.02250509 0.005957443 0.005928934 -0.0021638228 0.010716363 -0.0035934718
0.016697675 0.01788464 0.023424031 0.028468957 -0.00061877194 0.028210979 -0.0019344667 -0.023984388
-0.029235428 -0.0015393926 0.0209708 -0.0010154651 0.024018794 0.0056255856 0.0104006305 0.0014994057
0.015730366 -3.178926e-05 0.012171873 -0.009157088 0.021757407 0.0046781036 -0.016984941 -0.0019583006
-0.029112276 0.0039730817 0.000111197434 -0.024173202 -0.011166204 -0.008373111 0.028635746 0.009153175
0.020239064 -0.018161843 0.014234424 0.023027286 0.026250469 -0.0074814204 -0.0033848134 -0.018748397
0.025256913 -0.028948285 0.009527457 0.0052034603 -0.0014391814 0.020906892 0.018044405 -0.0014298143
0.0051461933 0.005153081 -0.012988219 -0.012208878 -0.025325926 0.016992576 0.028492756 -0.02241185
0.019312631 -0.012811919 -0.008515721 -0.018021839 0.023731163 0.014298533 0.022335842 0.00051109376
-0.0035414242 -0.016845636 -0.01754444 0.026529895 -0.0018907287 0.009489693 0.028443169 -0.0060327174
-0.022543155 0.017520038 0.002182501 -0.016337972 0.0028038647 0.014899684 0.021699492 -0.013663851
00000000: d91e 7bbc e00d 2c3c 757f 05bc 38c5 e3bc
00000010: 9028 d4bc 5ebe 383b 7060 d4bc 6a12 a7ba
00000020: 5b26 8f3c 1661 68bc 3d92 debc 754b 30bc
00000030: ed40 3ebb c0c7 b93c 4a39 64bc 78d6 d93c
00000040: aa6d 9f3c ecfb d53c 7ac4 e43c 2634 4a3c
00000050: d0b6 a8bc bbf4 3b3b d63a c6bc 869c c13c
00000060: 9282 be3a 3069 b73c a4e4 103c 8b07 5ebc
00000070: 3a88 8ebc d487 3e3c 1bfe dcbc c1ed c1bc
00000080: c993 c03c ade1 30bc f03a c23c 6602 1e3c
00000090: 42b8 113c 2c08 72bb 8882 bebc f16d 9a3c
000000a0: 12c2 983b c671 3ebc 7ae0 c63c c8e1 8f3a
000000b0: 7db9 cc3c ba71 6dba fd21 a2bc 4dc5 21bc
000000c0: 00f8 acbb df7e 7dbc 1b63 a3bb c3b5 29bc
000000d0: b1ad cabc 683f acbc 78c8 22bc 3611 00bc
000000e0: 9dc1 e5ba 73ae debc c781 16bb 36e4 963b
000000f0: 3390 62bc fcc0 dd3c 43f1 063c ccc8 b8bc
00000100: b072 7c3c b6eb d43b 5d66 c8bb bcc6 23bc
00000110: 39bc 743c b27b 8cbc 92bb 32bc c63d 443c
00000120: 19b4 8b3c 0faa 503c 5912 bf3a 9f41 4dbc
00000130: 6e28 d7bc 7b69 21bc 4b2f 223c 231c 423c
00000140: b0bb 01bc b08c 22bc 6d2a 19bb decc cfbc
00000150: b006 1f3c 60cf 96bc 2826 e2bc 4ea4 cc3b
00000160: 39e8 ddbb 7831 bdbc 86e8 c43b b8fe a33c
00000170: 32ee 0539 c20b 52bc dabb 33bb c994 ec3b
00000180: d180 babc 3c6a 233c c59c 793b 4180 94bc
00000190: 2307 6fb9 7b34 0fbc 7e29 fe3b 8be2 9e3c
000001a0: afcb 393c 64be 28bc 738f a1bc ff10 e13c
000001b0: 7565 363c 4000 e5bb af44 00bb b6e2 963b
000001c0: 286a 853c 3690 da3c 0a39 e53c fe70 143c
000001d0: 8088 ecba 3566 ab3c d6b8 4b3b 67b7 90bc
000001e0: 22e6 27bc 5659 b03c e90e fc3b 1c1e 8d3c
000001f0: 4f76 de3c 5350 90ba c710 123c 8dae d73a
00000200: 5a46 16bc 8835 e13c 902b 9abc d3d8 9d3c
00000210: 6c8c 3d3c ad8c cd3b eeee c7bc a848 2fbc
00000220: 658b 54b8 20f2 733c 5103 4abc af9e de3c
00000230: 51cf c03c d232 25bb 74e7 d4bc 46d3 793c
00000240: f8ad 3fbb ce92 87bc 8d48 bfbc a94d e33c
00000250: 7382 973c d0a8 613c c04f 9d3c 2712 89bc
00000260: ecde 84bc df1c a93c e4c4 b73c ecd7 e03c
00000270: 0d41 e4bc 9d6c bf3c 1993 a63c c701 c7bb
00000280: b9da a33b d5c7 4abc 964b 88bc 7594 5bbb
00000290: 206f 5abc ccd4 aebb 91f9 2ebc fd43 cbb9
000002a0: c936 b7bc 4fe7 c83c 985c b83c a736 c33b
000002b0: 8147 c23b ecce 0dbb af93 2f3c 7480 6bbb
000002c0: 90c9 883c cf82 923c c1e3 bf3c bb37 e93c
000002d0: 1535 22ba b61a e73c ee8d fdba e87a c4bc
000002e0: 237f efbc 72c5 c9ba f5ca ab3c 5b19 85ba
000002f0: 10c3 c43c d556 b83b 6867 2a3c b587 c43a
00000300: f8dc 803c 7555 05b8 896c 473c 9c07 16bc
00000310: 973c b23c c74a 993b 0124 8bbc d556 00bb
00000320: de7c eebc a030 823b ab32 e938 e106 c6bc
00000330: 74f2 36bc 5f2f 09bc 8395 ea3c 33f7 153c
00000340: 65cc a53c 25c8 94bc 8037 693c b8a3 bc3c
00000350: 390b d73c b426 f5bb bfd3 5dbb 3d96 99bc
00000360: 96e7 ce3c f424 edbc 0d19 1c3c ca81 aa3b
00000370: eaa2 bcba ee44 ab3c dcd1 933c 9b68 bbba
00000380: 66a1 a83b 2ddb a83b 8acc 54bc bf07 48bc
00000390: 5178 cfbc 0434 8b3c a469 e93c 0e99 b7bc
000003a0: 8635 9e3c 15e9 51bc 8685 0bbc 89a2 93bc
000003b0: db67 c23c 6544 6a3c a8f9 b63c ecfa 053a
000003c0: 3d17 68bb dcff 89bc 5cb9 8fbc 3955 d93c
000003d0: 54d2 f7ba a87a 1b3c a601 e93c 1aae c5bb
000003e0: 6cac b8bc 2f86 8f3c 4a08 0f3b 36d7 85bc
000003f0: 0bc1 373b ce1d 743c 22c3 b13c 58de 5fbc

conv2.bias f4 [2]
0.0007703636 0.00037783597
00000000: 3af2 493a 4918 c639
